ch9/tflite/ios/CustomModelEx/CustomModelEx/image_classification.tflite (tflite, 408124 bytes, 4 tensors)

dense/MatMul_bias f4 [128]
000000 3f d3 de bb 34 6b 8b 3d 70 57 ad 3d 41 c3 72 bd
       -0.006800085 0.06807557 0.08463943 -0.05926824
000010 a9 06 8f bd 9c d7 cc 3d 82 a4 82 bc 6c d3 f4 3d
       -0.06983692 0.10002062 -0.015947584 0.11954388
000020 0c 22 59 bd 9f 24 0d be f4 31 85 3d f9 85 1f 3e
       -0.053010985 -0.13783501 0.065036684 0.1557845
000030 11 e2 f2 3d 27 4e 28 bd 0b c7 a1 bd 30 3c 38 bd
       0.11859525 -0.041090157 -0.078992926 -0.044979274
000040 31 6f 30 bd 29 e7 ac 3c 99 aa ec 3b d9 f6 8c 3d
       -0.04307479 0.02110632 0.0072224853 0.0688302
000050 39 51 2a 3e 7f d8 2b 3e 92 83 47 3e 94 06 cc 3c
       0.16632546 0.16781805 0.19483784 0.02490548
000060 89 32 ac bd 17 c4 1a 3e 79 fc 27 ba f8 b2 e5 bc
       -0.08408076 0.15113865 -0.0006408166 -0.02803944
000070 d1 ef 45 3d b1 b3 8f bd f1 aa 7d bc 9c e9 1d be
       0.04832441 -0.07016695 -0.01548265 -0.15421146
000080 e4 63 77 3d a6 cc 31 3e 05 3f 41 3c ca 70 ed 3d
       0.060397997 0.17363223 0.01179481 0.115937784
000090 71 6a ad 3d 4a 3f be bc d4 c5 8f 3d d2 8f 19 3d
       0.08467568 -0.023223538 0.070201546 0.037490673
0000a0 ca af 5b 3d c4 f5 20 3e 17 ac 74 3d c7 d7 84 3c
       0.053634442 0.15718752 0.05973443 0.016216172
0000b0 59 6a 86 3d 41 42 a1 3d 8e 64 11 bd f0 42 9d bc
       0.06563253 0.07873965 -0.035496287 -0.019196957
0000c0 5a e0 bc 3d 8a 76 b9 bd f9 89 3f bb 4c cf 4c 3e
       0.09222479 -0.09055813 -0.0029226525 0.20000952
0000d0 8c 17 d5 3d fd dc 96 3d f9 6e f7 3d 8d 70 d7 bc
       0.10404882 0.07366369 0.12081713 -0.026298786
0000e0 31 74 89 3d 0c 8a 20 3d e2 0e ea ba c6 7d 0c bd
       0.06711615 0.03919415 -0.0017857219 -0.034299634
0000f0 bb f9 4e 3c 10 5d 58 bd b9 dd b3 bd 5c a8 02 3e
       0.012632783 -0.052823126 -0.087825246 0.12759537
000100 51 08 19 3d 58 b2 30 3b f4 5a 3c 3c 89 40 3d bd
       0.037361447 0.002696177 0.011496294 -0.046204124
000110 a9 ec d3 bb 22 a0 a5 bd 50 63 28 3d 0c 70 75 3c
       -0.006467421 -0.080871835 0.041110337 0.014980327
000120 a5 f1 0c bc 6c ca da bd ec 09 ea 3b ec 57 0d bd
       -0.008602534 -0.1068314 0.007142296 -0.034507677
000130 bf 7d 05 3e 5b 7f 88 3c 8f dd ee bd 98 3e e8 bb
       0.1303625 0.01666229 -0.11663353 -0.00708754
000140 5b 1d 1b bd d8 71 32 bd d7 41 ae bc bf e9 7e bd
       -0.037869792 -0.0435656 -0.02127163 -0.062234636
000150 0f d0 72 bd b7 d2 4e 3b 09 53 22 be bf 5f 21 3d
       -0.05928045 0.0031558701 -0.15851988 0.03939795
000160 55 91 b3 ba 0a 11 3c 3d 4e e4 68 3d fb 16 4c bd
       -0.0013699929 0.045914687 0.056858353 -0.049826603
000170 80 0f 92 3c 4e e2 1a be 81 75 00 3e 39 af 6d bd
       0.017829657 -0.15125391 0.12544824 -0.058028433
000180 4f af bd bd 7a 61 2d 3d a0 41 fe 3d 1b b0 dd bd
       -0.09261953 0.04232929 0.12414861 -0.10824605
000190 ef 05 4a 3e e1 cd a7 3d ae 58 03 3d 3a 55 0b 3e
       0.19728826 0.08193565 0.032066993 0.1360673
0001a0 a0 47 da 3b 40 8b 94 3c d5 43 fe 3d e2 3e f8 3b
       0.0066613704 0.018132806 0.12415282 0.0075758556
0001b0 c3 fc 98 3d bb 92 a7 3d 9a 9a 08 3c 09 f7 ee bc
       0.074700855 0.081822835 0.008337641 -0.02917053
0001c0 9f 04 96 bd 41 c1 6e bd 10 23 d2 3b 8c e0 bd 3d
       -0.073251 -0.05828977 0.006412871 0.092713445
0001d0 2c 6f ef bc 8d 76 17 3e 9b 91 61 3d 9d 22 b6 3d
       -0.029227816 0.14791317 0.0550705 0.08893321
0001e0 b8 b3 34 bc 43 57 d2 3d 57 11 02 3e 3a 35 cf 3c
       -0.011029176 0.1027055 0.12701927 0.025293935
0001f0 99 db 00 3d 9f 8d 9d 3d 3f 0f ce 3d 61 01 93 3d
       0.031459425 0.07693028 0.10061502 0.071779974

dense/kernel/transpose f4 [128, 784]
000000 78 2e 1c 3d 57 47 08 bd aa 04 12 3d 3e 14 62 bd
       0.038130254 -0.03327116 0.03564898 -0.055195086
000010 ae 6c 6d 3d 04 f8 0f bd 00 88 ba bb ae 0b 3a 3d
       0.057964973 -0.035148636 -0.005692482 0.045421295
000020 8c 61 90 bc 62 73 13 3d ba 45 7a 3d 76 c5 68 3d
       -0.017624639 0.03599871 0.061101653 0.05682894
000030 86 7a c3 bc cc 5c 65 3d 8e 09 5a 3d 22 7a 74 3d
       -0.023862135 0.0559967 0.05323177 0.059686787
000040 8d 7d a1 bd d6 ee 14 3d 98 65 1a 3d 06 be 21 bd
       -0.07885275 0.036360584 0.037694544 -0.03948786
000050 c0 c1 83 3a 50 1d f9 bb da ca 03 bd 18 5f d9 3c
       0.0010052249 -0.0076023713 -0.032175876 0.026534602
000060 05 cb 28 bd bd 67 87 3d 5c 43 68 bd 6b 01 9a 3d
       -0.04120924 0.066115834 -0.056704864 0.07519802
000070 02 c1 57 3d 52 6d 30 3d 28 2d 07 3d 88 2e 34 bc
       0.0526743 0.043073006 0.03300205 -0.010997422
000080 15 24 1e 3c 1c 4e 99 bd 72 91 85 bd 56 98 d0 ba
       0.009652157 -0.07485601 -0.06521882 -0.001591454
000090 85 dd 86 3d 15 7c 76 3d 92 31 f6 ba 2c 0f 23 bc
       0.0658522 0.060176928 -0.0018783084 -0.009952348
0000a0 16 f4 a4 bd 86 26 26 3d 4d da 27 3c 05 a0 0c bb
       -0.08054368 0.040564083 0.010244918 -0.0021457684
0000b0 61 0a ac bd e7 2d 8d 3b a2 dd 84 3d a8 e5 22 bd
       -0.08400417 0.0043084505 0.064875856 -0.0397698
0000c0 52 5b b3 bd f1 42 d2 bd d5 ac 4e bc 46 c6 18 bd
       -0.08757652 -0.10266674 -0.012614449 -0.037298463
0000d0 92 fc a3 bd d7 07 88 bd 2e 07 1e 3d c2 9b 37 bd
       -0.08007158 -0.0664212 0.038581066 -0.044826277
0000e0 10 fb 4c bc d0 ac f4 3c 57 c4 a3 3d a6 c1 56 3d
       -0.01251103 0.02986756 0.07996433 0.05243077
0000f0 1f 84 70 bb 8a 25 95 bd 41 8f bd bd dd 06 b9 bb
       -0.0036699844 -0.07282551 -0.09255839 -0.00564657
000100 16 3f a0 3d 2e 40 3b bd e0 80 7d 3c 1b ad 0f be
       0.07824533 -0.045715503 0.015472621 -0.14030878
000110 e2 7e 3d bb 06 a3 ca bd 49 f8 2b be bb ff d4 3d
       -0.002891474 -0.098943755 -0.16793932 0.10400339
000120 e4 a3 8b bd fe 49 01 be bb f7 cb bc 9c 03 ad 3a
       -0.06818369 -0.12625882 -0.0248984 0.0013199928
000130 5e f8 b6 bc 51 2e cc bd b3 2e 46 bd 34 fd d0 bd
       -0.022335228 -0.09969772 -0.04838438 -0.10204545
000140 e5 e5 3a bd 56 a6 b2 3d fa fc dc bc 3f fc 94 3d
       -0.0456294 0.08723132 -0.026976097 0.072746746
000150 b9 8f a4 3d 0c 66 b1 3c 10 e2 ad 3b c5 87 25 3c
       0.080352254 0.021655105 0.0053064898 0.010103171
000160 2f e1 3b 3c 56 4f b0 bd 1e fb 07 be 84 0a c9 bc
       0.011467262 -0.08608882 -0.13279387 -0.024541147
000170 05 2d 86 bc 57 25 8b be 32 46 5a be a0 a4 e6 bd
       -0.016378889 -0.27176926 -0.2131584 -0.112618685
000180 b5 1e 44 bd ac a7 04 3c 11 2b 21 3b 64 29 95 bd
       -0.047880847 0.008096617 0.002459232 -0.07283285
000190 a1 57 55 bd d3 c1 ea bd 65 cb 94 bd d6 d8 2e be
       -0.052085523 -0.1146275 -0.07265357 -0.17074904
0001a0 01 b6 2a be 7f bc 77 bc b6 d4 a3 bd e0 55 ea bc
       -0.16670991 -0.015120625 -0.07999556 -0.028605402
0001b0 bc 0a 41 bd b1 3a 96 3d 34 80 90 bd 60 99 db bb
       -0.047129378 0.07335413 -0.07055703 -0.0067016333
0001c0 6d f4 7a bd 55 5d 52 3d cc 90 97 3d 71 e6 86 3d
       -0.06126826 0.05135854 0.07400665 0.06586922
0001d0 a9 20 23 bc f3 8e 8c bd b1 41 36 bd b4 2a 3e bd
       -0.009956517 -0.06863203 -0.044496242 -0.046427444
0001e0 5e 01 02 3d 56 7f 0c be 12 1c 79 bd 67 06 6a bc
       0.031739585 -0.1372045 -0.060817786 -0.014283753
0001f0 6c 1b bf bd de 11 cd bd dd 4f 73 be c6 a4 47 be
       -0.09331402 -0.100131735 -0.23760934 -0.1949645
000200 24 0e b8 bd 44 cf fb bd ab 35 23 be d4 0d 26 be
       -0.08987072 -0.12295392 -0.15938441 -0.16216213
000210 19 17 b6 bd 59 16 b9 3c 6e 63 d9 bc 7c 5b 73 bd
       -0.08891124 0.022593664 -0.02653667 -0.05941342
000220 ca df a9 bd 81 5d 0d be 01 43 5f 3b 18 fc a0 bd
       -0.082946375 -0.138052 0.0034067037 -0.07860583
000230 d8 61 8f 3c 57 00 8b 3d 09 7f b7 bc 08 6f 8a 3c
       0.01750271 0.06787174 -0.022399442 0.016898647
000240 74 16 54 3c 0f 13 41 3e 65 8b 33 3d c1 1e 59 3e
       0.012944806 0.18854927 0.04383411 0.21203138
000250 a3 0a 82 3d 9e bb 31 3e 08 58 81 3c bd 1d 7a bd
       0.06349685 0.17356727 0.015789047 -0.061063517
000260 ee a1 3e bd 45 bb 0d be 26 89 ff bd c9 dd 47 be
       -0.046541147 -0.13840969 -0.12477331 -0.19518198
000270 fa ad 8a bd fe af a5 bd 58 f2 80 bd 1a fd 65 be
       -0.06771465 -0.080902085 -0.062962234 -0.22459832
000280 c1 8e 80 be 63 53 43 be 7a 86 df bd e0 0d a2 bd
       -0.25108913 -0.19074778 -0.10914321 -0.07912803
000290 71 33 10 be ac fe 54 3b a8 57 36 bd ab 47 dc bb
       -0.14082123 0.003250043 -0.04451719 -0.0067224107
0002a0 00 5b 85 39 17 db 49 3d 39 5d 17 3e 2e e5 1f 3d
       0.00025435537 0.049281206 0.14781655 0.039036922
0002b0 46 5a 0b 3e 73 9b 9a 3d 91 57 90 3d 01 61 ca 3d
       0.13608655 0.07549181 0.07047952 0.09881783
0002c0 8a 11 2e 3e 7d 03 45 3e 7b 37 5a 3d a0 0c 67 bd
       0.16998878 0.19239612 0.053275567 -0.056408525
0002d0 65 00 1b bd eb 1a 0f be c0 9b b2 bd c9 83 4b 3d
       -0.037842173 -0.13975112 -0.08721113 0.049686227
0002e0 38 2c cd 3d 9c 81 ff 3d 62 d4 7d bc 12 55 3d 3b
       0.100182 0.12475893 -0.015492531 0.0028889817
0002f0 85 b0 12 bd c7 ad 13 bd 23 11 89 3d c7 6b 1c bd
       -0.035812873 -0.0360544 0.06692722 -0.038188722
000300 77 61 aa bc 3e 11 1a bd 3e ff 95 3d 59 69 91 3d
       -0.020798428 -0.0376141 0.07324074 0.071001716
000310 c6 89 1d 3d d1 13 3d 3e 57 93 70 3d b8 22 36 3e
       0.03846147 0.1846459 0.058734264 0.17786682
000320 39 9d 7e bc e7 7e 16 be ad 24 97 3c 6c 89 9a 3d
       -0.0155404145 -0.14696847 0.018450106 0.075457424
000330 bf 4b 3d 3d f9 d6 d4 bd d3 b8 8c bd b2 e5 1d bd
       0.046214815 -0.10392565 -0.0687119 -0.038549133
000340 09 be 95 bd ec 04 39 3d 88 97 98 bd 00 fa a8 3a
       -0.07311637 0.04517071 -0.07450777 0.0012891889
000350 95 ee 3b bd a3 55 5f bd 87 6c 3f 3d ad e6 91 3d
       -0.045881826 -0.05452503 0.04673436 0.07124076
000360 91 a3 c3 3d 00 09 b9 bb 4d 32 c9 bd c2 de d4 3b
       0.09552682 -0.005646825 -0.09824047 0.0064962814
000370 22 30 fa 3d bd e5 2b 3c ec f3 ab 3c e1 09 fd 3c
       0.12216212 0.010491786 0.020990334 0.0308885
000380 fe 4c 38 bc 7e 90 e4 3c 32 2a 88 bc 1b fb d5 3d
       -0.011248825 0.02790093 -0.016621683 0.10448285
000390 e6 d5 25 bd 0e ab 25 be 5d ec 63 bd 16 3e b8 3c
       -0.040487193 -0.16178533 -0.055645335 0.022490542
0003a0 1b 6b 84 3d 7c 1d dc 3d 80 d7 cf 3d 0d b3 09 3d
       0.06465741 0.10747811 0.10148525 0.03361802
0003b0 5a d3 91 3b 5e 00 7c 3d 5d f5 ae 3d 74 2b ef 3d
       0.004450244 0.061523788 0.08542893 0.1167821
0003c0 04 81 b0 bd 9a ca f9 bc 10 f2 a6 3d 74 42 d1 3b
       -0.08618358 -0.030492116 0.081516385 0.0063860957
0003d0 a5 69 11 3e 42 a4 60 3b f5 78 ef 3d af ec 55 3c
       0.14200456 0.0034277593 0.116929926 0.013056918
0003e0 76 ff 54 3d 57 6a 9e 3d e4 46 05 bd 42 47 22 be
       0.05200144 0.077351265 -0.03253831 -0.15847495
0003f0 46 11 9c 3d a3 0f 58 3e 68 61 f8 3d 8d af 43 3e
       0.07620482 0.21099715 0.12127954 0.19109936

dense_1/MatMul_bias f4 [10]
000000 e8 7d 05 be bd 3c ae bc 80 5d 90 3d f9 2f 04 be
       -0.1303631 -0.021269197 0.07049084 -0.12908925
000010 cf 19 1b 3d 11 d3 d0 3d 55 c4 d9 bd 8d a7 af bc
       0.03786641 0.10196508 -0.106331505 -0.0214422
000020 5f 2d 03 3e 73 bd d5 bc
       0.12810276 -0.026091313

dense_1/kernel/transpose f4 [10, 128]
000000 31 3c df be ee 9a 13 be 14 02 9e 3d 8d 8b 28 3e
       -0.4360061 -0.1441457 0.0771524 0.16459484
000010 63 e8 bf 3c 52 7c d4 bd ef 06 69 3c fe 94 c1 be
       0.02342624 -0.10375275 0.0142228445 -0.37808985
000020 6c fe 70 bf e7 d8 ee 3d 11 c3 00 bf 1f 23 aa 3d
       -0.94138217 0.116624646 -0.5029765 0.0830748
000030 cf d1 20 bf 70 ee 72 be 21 b3 84 3e eb 06 44 be
       -0.6282014 -0.23723769 0.25917915 -0.19143264
000040 2d 54 94 3e c7 26 c8 3d b5 8b 33 3e af bb d3 3d
       0.2897047 0.09773021 0.17533763 0.10338532
000050 80 68 ab 3d e1 a4 d1 be ad 30 53 3e 5b 4e c0 3c
       0.08369541 -0.40946105 0.20624037 0.023474863
000060 cf 08 15 3c 71 18 bd 3d 40 d5 f7 be d4 23 86 be
       0.009096338 0.092331775 -0.48404884 -0.2619921
000070 b7 e6 93 be 10 c1 84 3b bb 7e 04 bd 1e 0c 7e 3e
       -0.2888696 0.004051335 -0.032347422 0.2480931
000080 72 0a b7 bd b2 14 7d bd d8 2f 8d bd ad ed 7b 3e
       -0.08937539 -0.061787315 -0.06893891 0.24602385
000090 21 56 50 3e 5c eb 76 3d 18 3e a4 be 61 23 43 3e
       0.20345356 0.06028305 -0.32078624 0.19056465
0000a0 20 8c 2c bf d3 89 24 bf 34 44 9b 3d ff 7b 2e bd
       -0.67401314 -0.64272803 0.07581368 -0.04259872
0000b0 75 68 6b 3e 65 6d 8a 3e a8 36 59 3e 3c 34 26 bd
       0.22989066 0.27036586 0.21212256 -0.04057716
0000c0 88 95 69 3d ec a7 1c bf 58 f4 4c bb b5 c5 e8 be
       0.05702737 -0.6119373 -0.003127357 -0.45463338
0000d0 77 78 56 3e 84 c5 e9 be a1 cd 85 be f7 dd 6f 3e
       0.20944391 -0.45658505 -0.26133445 0.23424517
0000e0 f8 63 7d 3e 65 ff 5e 3e eb 7b 6c be 8c 23 00 bf
       0.24745166 0.21777113 -0.23094146 -0.5005424
0000f0 0a 03 49 3e 68 ae 60 3e 26 b8 73 3e 19 57 e1 3c
       0.19630066 0.2194153 0.23800716 0.027507352
000100 d0 cc 16 3e 8c 05 85 3d fd 79 69 3e f6 25 b1 bd
       0.14726567 0.064951986 0.22800441 -0.086498186
000110 f0 fc 0d 3c 97 5b 22 be 69 2c 7e bd 88 e5 93 bc
       0.008666262 -0.15855251 -0.06205407 -0.018053785
000120 52 bb 26 3d ca db 1d be 8a 82 2b 3e 24 bd fd bd
       0.040705986 -0.15415874 0.16749015 -0.12389591
000130 18 40 ad be 61 0a a1 3d 34 4f 1f bf 34 0b f5 bd
       -0.33837962 0.07863308 -0.6223023 -0.119650275
000140 91 76 6a 3e 2f d6 7d 3e 70 7a 42 be 18 13 11 3e
       0.22896792 0.24788736 -0.18992019 0.1416744
000150 71 e5 fc be d4 d5 7e 3e ed 65 c2 3e aa ca 89 bd
       -0.493938 0.24886256 0.37968388 -0.06728108
000160 77 ca a5 bd 11 f9 ec be e9 2d 6e 3b 86 92 0a bf
       -0.08095258 -0.46283773 0.0036343283 -0.5412983
000170 bf b5 76 3e 26 f3 84 3e 25 bf 66 3e 02 fe 20 3e
       0.24092768 0.25966758 0.22533853 0.15721896
000180 fc 90 44 3e 14 c5 22 be cc 9e 05 bf 9d 90 26 3e
       0.19195932 -0.15895492 -0.5219543 0.16266103
000190 30 1f 88 be 67 3c 69 3e 1c b4 40 be 24 7d 24 bf
       -0.26586294 0.22776948 -0.18818706 -0.6425345
0001a0 e5 04 07 be 63 c4 b4 bc 49 89 fd bd f0 31 01 be
       -0.13185461 -0.0220663 -0.12379701 -0.12616706
0001b0 00 14 30 be ac c5 be be 2c 66 e6 be d8 44 58 be
       -0.1719513 -0.37260187 -0.44999826 -0.21120012
0001c0 25 91 67 3e 05 bd 8f 3e 63 f1 6d 3d 7d 5d 84 3e
       0.22613962 0.28073898 0.058091532 0.25852576
0001d0 6b 19 27 3e 30 04 37 3d d7 27 aa bd 80 35 9b 3d
       0.1631829 0.044681728 -0.0830838 0.07578564
0001e0 bf 95 b3 be 41 36 e1 bd 6d 91 98 be 34 5f 4b be
       -0.35075185 -0.10996676 -0.2979845 -0.19860536
0001f0 e5 b2 20 bf ad 42 d5 bd 79 06 f0 be 73 6f 08 3e
       -0.6277297 -0.10413108 -0.46879938 0.13323765
000200 87 89 fe bd 2d 31 a7 be b2 75 e0 3d 96 24 94 bb
       -0.12428575 -0.32654706 0.109599486 -0.004520963
000210 16 b2 82 bd 4b 22 31 3d 05 d4 da bd 04 da 60 3e
       -0.063816234 0.043245595 -0.10684971 0.21958166
000220 fe 44 8c 3e c0 b9 a2 be 0b 84 1e 3f 15 24 98 be
       0.27396387 -0.3178234 0.6192023 -0.29715028
000230 1a c4 98 be dd 71 5c 3e e2 eb 43 be 20 90 af be
       -0.29837114 0.2152781 -0.19132951 -0.34289646
000240 c6 d0 4a be d5 79 c1 3e a0 5d 46 be df 35 3d bf
       -0.19806203 0.37788263 -0.19371653 -0.73910326
000250 c3 11 11 be 4f b2 c9 be 80 52 c2 3d 32 0d 08 bf
       -0.14166932 -0.3939385 0.09488392 -0.53145134
000260 9b 17 08 bf 7f d9 65 be c5 5a a2 be 20 c3 87 3e
       -0.5316102 -0.2244625 -0.31709877 0.26516056
000270 a7 32 be 3d c9 bb 15 be 97 04 79 be af e4 42 3e
       0.09287005 -0.14622416 -0.24318157 0.19032548
000280 f0 56 00 be 3c b7 bd 3e 49 f0 b6 3e db 1a 8c 3e
       -0.12533164 0.3705386 0.35730198 0.2736424
000290 c9 a0 4f be 05 5d a2 be ad b7 a9 bd 96 84 86 be
       -0.20276178 -0.31711593 -0.082869865 -0.2627303
0002a0 a3 84 b5 bd 3c 56 4c 3c 13 1a 7a 3e 95 f8 28 be
       -0.08863189 0.012471732 0.24424009 -0.16501077
0002b0 32 c2 0f bf d7 b0 38 be 66 2f ab be 19 17 3a be
       -0.56155694 -0.18036209 -0.334346 -0.18172874
0002c0 a5 f2 bb bd 5c b5 47 be e1 86 b2 be 97 92 fa 3d
       -0.0917714 -0.19502777 -0.3486853 0.12234991
0002d0 4b 5f 94 3e eb ad 93 3d 2e d0 a7 be 60 2e fe bd
       0.28978953 0.072109066 -0.32776016 -0.12411189
0002e0 50 4c 84 be 6a 79 1f bf 9a 8f 04 be f8 c1 dc 3d
       -0.25839472 -0.6229464 -0.12945405 0.10779184
0002f0 37 da 8d 3c 78 54 1e 3e 3f 14 3f be ac 8d e6 3e
       0.017315967 0.1546191 -0.18660067 0.45029962
000300 12 5d 2e 3d 28 9b 38 3e 70 ce 1c bf 01 22 a8 bd
       0.042569228 0.18027937 -0.612525 -0.08209611
000310 d5 f5 17 3e 83 b1 4b be 0c ac aa bc 9a 83 a8 bc
       0.14839871 -0.19891934 -0.020833991 -0.020570565
000320 26 ea a6 3e 60 7d 0d 3e bc 6b b4 bc e5 df 2a 3f
       0.32600516 0.13817358 -0.022024028 0.66747886
000330 61 de 88 3e 32 0c c3 3a a9 51 6c 3e 12 09 02 3f
       0.26732162 0.0014880954 0.23078026 0.5079509
000340 36 4d 19 3d db 9f 4d 3e f1 df 52 bd 50 03 58 be
       0.03742715 0.20080511 -0.0514831 -0.21095014
000350 c0 2c 77 bd 75 66 da bd ca 29 e5 be ff 05 21 be
       -0.06034541 -0.106640734 -0.44758445 -0.15724944
000360 67 e9 37 be 98 5b 63 3e 23 89 57 3e 2e d8 4a 3d
       -0.1796013 0.22202909 0.21048407 0.04952257
000370 83 71 1a be 4f 8a c1 bd 97 8c 05 be b3 3e 69 be
       -0.15082364 -0.094502084 -0.13041912 -0.22777824
000380 c5 73 69 be ad b1 63 be 0d ad 1a 3e 7e cd aa be
       -0.22798069 -0.22235747 0.15105076 -0.33359903
000390 c6 f1 6b be 8e ed 94 bd ca a7 35 3e 11 d1 32 be
       -0.23041448 -0.072718725 0.17739788 -0.17462565
0003a0 5b 8d cb bd d3 c0 06 3f 23 88 01 bf 11 41 39 3e
       -0.09939071 0.52637976 -0.50598353 0.18091227
0003b0 e8 f6 29 3e 23 03 8c be 66 a0 fd 3d b1 66 8c 3e
       0.16598094 -0.27346143 0.12384109 0.27422097
0003c0 37 ed 86 bd 40 0e 5f be b6 85 cd be ac 2b 86 3e
       -0.06588214 -0.2178278 -0.40141076 0.26205194
0003d0 3f ec 05 3e 0f fc bb be ff 45 c9 bd 20 a5 39 be
       0.13078402 -0.36715743 -0.09827804 -0.18129396
0003e0 8d d5 bd 3e 47 79 92 be c3 fd d0 3b 50 4e 93 bd
       0.3707699 -0.28608152 0.006377907 -0.07192671
0003f0 37 fa a6 3d db 84 33 3e 1f fa e1 3d bb b1 9a 3e
       0.081531934 0.17531149 0.11034035 0.30213723
